workdir/weibull_model.pth (torch, 7001 bytes, 4 tensors)

FCLayers.0.weight f4 [16, 64]
0	0xbb08508f	-0.002079997
1	0x3c8b01ba	0.016968597
2	0x3ce9ae99	0.028525637
3	0xbca9bd10	-0.020720035
4	0x3cfbaf4a	0.030723233
5	0x3d082f79	0.0332484
6	0x3d16cfc5	0.03681924
7	0x3d4eba9e	0.05047094
8	0x3d81a0c6	0.06329493
9	0x3d3d4111	0.04620463
10	0x3ce75ddf	0.028243003
11	0xbce7b580	-0.028284788
12	0x3d310437	0.04321691
13	0xbd78eb0c	-0.060771033
14	0xbce8ef89	-0.028434532
15	0xbc70e68d	-0.014703405
16	0xbbf6e925	-0.007535117
17	0x3c6bc0ad	0.014389199
18	0xbb5f38af	-0.0034060886
19	0x3a813def	0.0009860377
20	0xbd03e10b	-0.03219704
21	0x3c44b33d	0.012005624
22	0x3ced493a	0.028965581
23	0xbca6ecc9	-0.02037658
24	0x3d003bdb	0.031307083
25	0xbcf3b8cd	-0.029751206
26	0xbd0888e1	-0.033333663
27	0xbb584559	-0.0033000319
28	0xbc749cea	-0.014929989
29	0x3d3fab9e	0.046794526
30	0x3daed7f3	0.08537283
31	0xbd2de04d	-0.042450238
32	0xbca45d1a	-0.020063926
33	0xbd15470d	-0.036444712
34	0x3d2383f5	0.039920766
35	0x3d8dffe1	0.06933571
36	0x3cd03ba4	0.025419064
37	0xbc70c18c	-0.014694583
38	0xbdc2c491	-0.09510148
39	0x3b7ab6c8	0.0038255919
40	0x39c836be	0.0003818776
41	0x3c447ce0	0.011992663
42	0xbc164fba	-0.009174282
43	0x3dd0f62a	0.10203202
44	0xbc28a98f	-0.010294332
45	0x3c20f344	0.009823624
46	0xbd2058af	-0.039147075
47	0xbc8dd457	-0.017313166
48	0xbd32f8e2	-0.043694384
49	0x3d0ad1c9	0.033891473
50	0xbd342e59	-0.043989513
51	0x3c822bda	0.01589005
52	0xbd1d0d1c	-0.03834258
53	0x3cc78945	0.024357447
54	0xbd0ab39a	-0.033862688
55	0xbc3f0679	-0.011659258
56	0x3d507e0f	0.05090147
57	0x3dd98d1b	0.10622617
58	0xbd3fa562	-0.04678858
59	0x3d5ced3a	0.053937174
60	0xbdbbcd35	-0.091699995
61	0x3da88777	0.08228963
62	0xbdea4b55	-0.1144015
63	0xbaac467f	-0.0013143568
64	0xbc638219	-0.013885998
65	0xbd2f943e	-0.042865984
66	0xbc1b4130	-0.009475991
67	0x3bf7b46f	0.007559351
68	0xbd796976	-0.06089159
69	0x3cbc7308	0.02300407
70	0xbcef3a90	-0.02920273
71	0xbd76dd4d	-0.060269643
72	0x3c9ffa26	0.01952846
73	0x3ce3c006	0.027801525
74	0x3c26a4b7	0.010171107
75	0x3d40e0a2	0.047089227
76	0x3db42111	0.087953694
77	0x3d87abc7	0.06624561
78	0x3cd67bf5	0.026182154
79	0xbb64908c	-0.0034876196
80	0x3c84db00	0.016217709
81	0x3c6d759d	0.014493373
82	0x3bc4733e	0.0059951833
83	0xbd6ae0d3	-0.057343315
84	0xbd31e548	-0.04343155
85	0x3d637334	0.055529788
86	0x3cf5b16a	0.029991824
87	0x3d827375	0.06369678
88	0xbc2d129b	-0.010563518
89	0xbc68470d	-0.014177096
90	0x3c934ae3	0.017980045
91	0x3da00c8e	0.078148946
92	0xba89fc8a	-0.0010527533
93	0xbdcd4e3d	-0.100246884
94	0x3ce6eb61	0.02818841
95	0x3d248d9b	0.040174108
96	0xbc29496c	-0.010332447
97	0xbd83e8d7	-0.06440895
98	0x3ced4006	0.028961193
99	0xbd4ae1c0	-0.0495317
100	0xbdabcb4a	-0.08388384
101	0xbd0649fa	-0.032785393
102	0xbd80d305	-0.06290249
103	0x3d79adab	0.06095664
104	0xbc5f9174	-0.013645519
105	0x3d86b29a	0.06577034
106	0x3c03decf	0.008048727
107	0xbd2e52ab	-0.042559307
108	0x3bd5e1f6	0.006527181
109	0xbc5b7394	-0.013394255
110	0x3accdd73	0.0015629962
111	0xb93c54a7	-0.00017960613
112	0x3d0aea97	0.03391513
113	0x3d149173	0.036271524
114	0x3d1cb30b	0.038256686
115	0x3c37198c	0.011175524
116	0xbbdf06da	-0.0068062367
117	0xbccec44d	-0.025240088
118	0xbb90e9f4	-0.0044224206
119	0x3ce7483c	0.028232686
120	0xbd7b955c	-0.061421737
121	0xbcffb583	-0.031214481
122	0xbd513aac	-0.051081344
123	0x3d1c8e07	0.038221385
124	0xbddf07fe	-0.10890196
125	0xbb8bdb8f	-0.004268117
126	0xbb837fcb	-0.004013037
127	0x3da0c59c	0.07850191
128	0xbc985759	-0.018596338
129	0x3c6e15af	0.014531537
130	0x3c15fa6a	0.009153942
131	0x3af72e9e	0.0018858497
132	0xbd85f8dd	-0.065416075
133	0xbb5d44ef	-0.0033763011
134	0x3afb7a4d	0.0019186229
135	0xbb82e9fa	-0.0039951773
136	0x3c4939c8	0.0122818425
137	0xbd2fc5ea	-0.042913355
138	0xba594816	-0.00082886347
139	0x3d1b1ee9	0.037871275
140	0xbcdb732a	-0.026788313
141	0xbd44a0cb	-0.048004907
142	0xbd6448b8	-0.055733413
143	0x3b18a143	0.002328948
144	0x3c13964d	0.0090080025
145	0x3b7307e4	0.003708356
146	0xbca70654	-0.02038876
147	0x3c855558	0.016276047
148	0x3d142308	0.03616622
149	0x3d86f132	0.06588973
150	0x3c8c5882	0.017132048
151	0xbcbd75cd	-0.02312746
152	0x3c80a54c	0.01570382
153	0xbbe19fb2	-0.0068854922
154	0xbcb973ea	-0.02263828
155	0xbcb8a3b2	-0.022538994
156	0xbc403716	-0.0117318835
157	0xbd1d3e4a	-0.03838948
158	0x3c0e8c2c	0.008700412
159	0x3d1e4ec9	0.038649354
160	0xbd53038f	-0.051517066
161	0x3ca8de0d	0.020613695
162	0xbd9429c1	-0.072345264
163	0x3c9e5713	0.01932863
164	0x3d26eb60	0.040751815
165	0x3c5e9ecb	0.013587664
166	0x3d03afe5	0.032150168
167	0xbd2d781b	-0.04235087
168	0x3cc59132	0.024117086
169	0xba084012	-0.00051975355
170	0x3bda2886	0.006657663
171	0x3aca8159	0.0015449926
172	0xbd2afa6e	-0.041742735
173	0x3c1e6225	0.009666954
174	0xbd2a4561	-0.04157007
175	0x3d5f8893	0.054573607
176	0xbce1455e	-0.027498897
177	0x3c440070	0.011962995
178	0x3c1ca299	0.009560251
179	0x3d0e744a	0.03477887
180	0x3c6e9d12	0.014563816
181	0x3d161ea5	0.03665032
182	0x3bc19d9c	0.005908681
183	0x3b9024d3	0.004398921
184	0xbab688f4	-0.0013926313
185	0xbc96b17c	-0.018395178
186	0x3d3325f0	0.043737352
187	0xbb8915a7	-0.0041834894
188	0x3ca0f15c	0.01964634
189	0x3b62b546	0.003459291
190	0x3d44a075	0.048004586
191	0xbb9553c0	-0.004557103
192	0xbc1d8ecf	-0.009616568
193	0x3b3eb2a4	0.0029098177
194	0x3bf59e8c	0.007495707
195	0xbb8af24d	-0.0042403103
196	0x3aea8de8	0.0017895075
197	0x3c0b0058	0.008483969
198	0xbaeb29f0	-0.0017941575
199	0x3c21a515	0.009866019
200	0x380eb692	3.402547e-05
201	0x3b5004c5	0.0031741124
202	0xbba82c5e	-0.005132242
203	0x3c9f36db	0.019435337
204	0x3b96320b	0.0045836023
205	0xbc2301ec	-0.009949189
206	0xbc104822	-0.00880626
207	0xb98425f3	-0.00025205276
208	0x3896c553	7.189312e-05
209	0xbc467b7d	-0.012114403
210	0x3bb9fa80	0.005675614
211	0xbc247d72	-0.010039674
212	0xbc13ea0b	-0.009027968
213	0x3c039a5d	0.008032409
214	0xbbe79ca3	-0.007068233
215	0xbba68002	-0.0050811777
216	0x3b274711	0.0025524537
217	0x3ae8ad5d	0.0017751862
218	0xba8f7a44	-0.0010946472
219	0xba24a9ef	-0.00062814256
220	0xbc940ec8	-0.018073454
221	0xbc6ba258	-0.0143819675
222	0x3b96fcde	0.004607781
223	0x3b35b63b	0.0027727026
224	0x3bfdff5e	0.0077513894
225	0x3be18ca0	0.006883219
226	0xbc440663	-0.011964413
227	0x3b2c1baf	0.0026261618
228	0xbb96c946	-0.0046016304
229	0xbb84765a	-0.004042429
230	0x3b3f49e8	0.0029188339
231	0x3b82edd8	0.0039956383
232	0xba978501	-0.0011560024
233	0xbc109226	-0.008823907
234	0xbc2f3f9c	-0.010696318
235	0xbbdf40f7	-0.0068131643
236	0xbb8f3fe9	-0.0043716324
237	0x3c3e9df5	0.01163434
238	0xbc631bc8	-0.013861604
239	0x3b97bf7f	0.0046309824
240	0x3c0494a9	0.008092084
241	0xbbe0c97f	-0.0068599577
242	0xbb56cbf9	-0.0032775386
243	0x3a91ceea	0.0011124287
244	0xbb6ef97a	-0.0036464618
245	0x3c2d54e8	0.010579325
246	0xbc7af09e	-0.015316157
247	0x3a0b31ff	0.0005309879
248	0xbb9e4da8	-0.0048310347
249	0x3c0bade6	0.008525347
250	0xbb17a663	-0.0023139946
251	0xbc75709c	-0.014980461
252	0x3a7c30ae	0.0009620291
253	0x3c05a1f1	0.008156286
254	0x3aab530c	0.0013071015
255	0xbc380623	-0.011231932

FCLayers.0.bias f4 [16]
0	0x3e9f51b8	0.31117034
1	0x3e412384	0.18861204
2	0xbee7503a	-0.45178396
3	0xbac76166	-0.0015211522
4	0xbac76134	-0.0015211464
5	0xbeeb5de2	-0.45970064
6	0x3ee26240	0.44215584
7	0xbac76110	-0.0015211422
8	0xbac761f8	-0.0015211692
9	0xbee663d2	-0.44998032
10	0xbe596dab	-0.21233241
11	0x3e1083c0	0.14112759
12	0xbac761f6	-0.001521169
13	0x3ef9b35e	0.4876966
14	0x3ecdebf5	0.40219083
15	0xbebe3299	-0.37147978

FCLayers.3.weight f4 [2, 16]
0	0x3ed92383	0.42409906
1	0x3e908efe	0.28234094
2	0xbf0da8a3	-0.55335444
3	0x3c8d6fb2	0.017265175
4	0x3c8d6fb3	0.017265176
5	0xbf132fdf	-0.5749492
6	0x3f1b5767	0.6068024
7	0x3c8d6fb5	0.01726518
8	0x3c8d6fab	0.017265161
9	0xbf13e231	-0.57767016
10	0xbeaed3f8	-0.34146094
11	0x3e56484a	0.20926014
12	0x3c8d6faa	0.01726516
13	0x3f1ea588	0.6197133
14	0x3eef56db	0.46745953
15	0xbeee1263	-0.46498403
16	0x3d8bdd6d	0.06829343
17	0x3e0cfd9f	0.13768624
18	0xbe17561b	-0.1477894
19	0xbc7e9760	-0.01553902
20	0xbc7e9762	-0.015539022
21	0xbe022ef5	-0.12713225
22	0xbb7a3bc3	-0.0038182593
23	0xbc7e9762	-0.015539022
24	0xbc7e9756	-0.015539011
25	0xbe14ffdc	-0.14550728
26	0xbdb3df24	-0.08782795
27	0x3ea1807a	0.31543332
28	0xbc7e9747	-0.015538997
29	0x3d3fdffb	0.046844464
30	0x3e097b2f	0.13425897
31	0xbe6c64f5	-0.23085387

FCLayers.3.bias f4 [2]
0	0x3f65eb2d	0.89811975
1	0x3e291a68	0.1651398
